pretrained_model/ckpt_96_cemblayer.pt (torch, 3361 bytes, 5 tensors)

condEmbedding.0.weight f4 [11, 10]
0	0x00000000	0.0
1	0x00000000	0.0
2	0x00000000	0.0
3	0x00000000	0.0
4	0x00000000	0.0
5	0x00000000	0.0
6	0x00000000	0.0
7	0x00000000	0.0
8	0x00000000	0.0
9	0x00000000	0.0
10	0xbef2f93e	-0.47455782
11	0x40062046	2.0957198
12	0x3d09e317	0.033663835
13	0xbfb1464d	-1.3849579
14	0xbf32a089	-0.6977621
15	0xbf2d5271	-0.6770392
16	0xbfd51a6d	-1.664869
17	0xbf7c047b	-0.98444337
18	0x3fd69f84	1.676743
19	0xbf921a85	-1.1414343
20	0xbeed17e2	-0.46307284
21	0x3fab380a	1.3376477
22	0x3d95f955	0.07322947
23	0xbf50d07d	-0.8156813
24	0xbf8660c2	-1.0498278
25	0xbe87e259	-0.26539877
26	0x40033973	2.0503814
27	0xbdc78ac0	-0.09743261
28	0xbf72a106	-0.9477695
29	0x40190255	2.3907673
30	0x3e5f672d	0.21816702
31	0xbf18937f	-0.5960006
32	0xbf22d61c	-0.63607955
33	0xbe5f0a35	-0.21781237
34	0x3ebd1563	0.3693038
35	0x3fc16067	1.5107545
36	0xbda7b6cf	-0.08189165
37	0xbc6d9aba	-0.014502222
38	0xbe67fbe8	-0.22654688
39	0x3f3d0678	0.73837996
40	0x3fe82d9b	1.8138918
41	0x3eb1837e	0.34670633
42	0xbde58366	-0.11206703
43	0xbd825b9f	-0.063651316
44	0x3ea66f1b	0.32506642
45	0xbcadeb99	-0.021230506
46	0xbf878ef0	-1.0590496
47	0x3f0916ff	0.53550714
48	0xbfe378b1	-1.7771207
49	0x3eaeaad9	0.3411472
50	0x3f3e6ffa	0.7438961
51	0x3f9a812d	1.2070671
52	0xbfd171e1	-1.6362878
53	0x3d76603a	0.060150363
54	0xbf9ef464	-1.2418332
55	0x3fd53e43	1.6659626
56	0xbf9af834	-1.2106996
57	0xbf9cd329	-1.2251941
58	0xbf9a9eaa	-1.207967
59	0xbee705da	-0.45121652
60	0x3ed8402c	0.4223646
61	0xbfa0e277	-1.2569112
62	0xbf008b74	-0.5021279
63	0xbf062dbc	-0.52413535
64	0x3ee42427	0.44558832
65	0x3f5b023c	0.85550284
66	0x3f782291	0.96927744
67	0x3fc0b3c4	1.505486
68	0xbece97d8	-0.40350223
69	0x3ec173ae	0.3778357
70	0xbf2e56fe	-0.6810149
71	0xbd99f7fa	-0.07518001
72	0x3eac47e0	0.33648586
73	0x3e9be8ae	0.30450958
74	0x3fe3227a	1.7744896
75	0x3f3d6e57	0.7399649
76	0xbef6411a	-0.48096544
77	0x3ec60cf0	0.38681746
78	0xbead55fa	-0.33854657
79	0x3d3cf1b2	0.046128936
80	0x3e6b6589	0.22987951
81	0x3c62c3be	0.013840614
82	0xbf4cac44	-0.79950356
83	0x3f0f6a67	0.5602173
84	0xbded07a6	-0.115737244
85	0xbff09895	-1.8796564
86	0xbefc4c2a	-0.4927686
87	0x3f689e2b	0.90866345
88	0x3f71da91	0.9447413
89	0x3f60cbef	0.8781118
90	0xbe3c77f5	-0.18405135
91	0x3ff848bd	1.9397198
92	0xbe22b22a	-0.15888277
93	0x3e806a66	0.25081176
94	0x3ef33d33	0.4750763
95	0x3f099426	0.5374168
96	0xbedc3bf7	-0.430145
97	0x3f82ad8f	1.0209216
98	0x3d97abaf	0.07405793
99	0xbf30441a	-0.68853915
100	0xbfb006b1	-1.3752042
101	0xbf8af882	-1.0857089
102	0xbfb37fdc	-1.4023395
103	0xc0375b24	-2.8649378
104	0xbd2fb05e	-0.042892806
105	0xbf842eac	-1.0326743
106	0x3e480e33	0.19536667
107	0xbfb47e3d	-1.4101025
108	0x3e3b9b70	0.18321013
109	0x3fd61ef8	1.6728201

condEmbedding.1.weight f4 [10, 10]
0	0x3e7cb1a7	0.24677144
1	0xbe512336	-0.20423588
2	0xbe629752	-0.22128037
3	0xbd9b0376	-0.075690195
4	0x3e8b843d	0.27249327
5	0xbe5dfdf7	-0.21678911
6	0x3e30962b	0.17244785
7	0x3e840b33	0.25789794
8	0x3d5c27d3	0.053748917
9	0x3e111e60	0.14171743
10	0x3d4517af	0.04811829
11	0x3e0adc85	0.13560684
12	0xbea2204f	-0.31665275
13	0xbe6facdb	-0.23405783
14	0xbc7aeef7	-0.015315763
15	0x3e8bd8d5	0.27313867
16	0x3e856bf4	0.26058924
17	0x3de4909d	0.11160395
18	0xbe89062c	-0.2676252
19	0x3e85de31	0.2614608
20	0xbea52a08	-0.3225863
21	0xbd6d88e5	-0.05799188
22	0xbe1387fb	-0.14407341
23	0x3e2d7ec2	0.16942886
24	0xbd995532	-0.07486953
25	0x3e7a8388	0.24464238
26	0xbe5e45b8	-0.21706283
27	0xbc8c0648	-0.017092839
28	0x3e6ebb3d	0.23313613
29	0x3e7cd77b	0.24691574
30	0x3e22d173	0.15900211
31	0x3ea6c8e7	0.3257515
32	0xbe6549eb	-0.22391479
33	0x3ec30fa3	0.38097867
34	0xbd6972fb	-0.05699442
35	0xbe636e9f	-0.22210167
36	0xbdcdabe6	-0.10042553
37	0x3eb7dee6	0.35912246
38	0x3d9fc4c8	0.07801205
39	0xbcbe97a0	-0.02326566
40	0xbe1849fe	-0.14871976
41	0xbe832366	-0.25612944
42	0x3df7782b	0.12083467
43	0xbe4ded36	-0.2011002
44	0xbe63e2f9	-0.22254552
45	0xbe836b16	-0.25667638
46	0x3e8cd9e2	0.2750998
47	0x3d2d4092	0.042297907
48	0x3e5466f5	0.207424
49	0x3cc6b766	0.024257373
50	0xbe46564a	-0.19368854
51	0x3e470bb9	0.19438066
52	0x3dbf3b77	0.09337514
53	0xbe996cae	-0.2996573
54	0x3e70999b	0.23496096
55	0x3d9cb67e	0.07651995
56	0x3c6e6c7f	0.014552235
57	0x3e8d3678	0.2758062
58	0x3d17df38	0.037078112
59	0xbeb0c953	-0.34528598
60	0x3e8afb4b	0.27144846
61	0xbe34a4b6	-0.17640957
62	0x3cfabe08	0.030608192
63	0xbde67dfb	-0.112544976
64	0xbdc202f7	-0.09473222
65	0xbdcb9b8a	-0.09941776
66	0xbdc65224	-0.09683636
67	0x3dd4fb68	0.103995144
68	0x3ea42412	0.3205877
69	0x3d959b4a	0.0730501
70	0xbdeb8f56	-0.115019485
71	0x3d8a3436	0.0674824
72	0x3e8f8272	0.2802921
73	0x3c6f0971	0.014589653
74	0xbdaba226	-0.08380537
75	0xbe283759	-0.16427363
76	0x3e80f976	0.25190324
77	0xbd4bcf05	-0.049757976
78	0x3e44cb32	0.19218138
79	0x3cb77887	0.02239634
80	0xbce1f68b	-0.027583381
81	0xbe9778f5	-0.2958447
82	0x3e520ca0	0.20512629
83	0xbdede7d4	-0.11616483
84	0xbea651f0	-0.32484388
85	0xbd7822c1	-0.06058002
86	0x3cea1744	0.028575547
87	0xbdedbc25	-0.11608151
88	0x3e251fda	0.16125432
89	0x3da89ddd	0.08233235
90	0xbe8d5d2b	-0.27610144
91	0xbe588de1	-0.21147873
92	0xbe02a998	-0.12760007
93	0x3cc0de82	0.0235436
94	0xbe21cb05	-0.15800102
95	0x3e390bf6	0.18070969
96	0x3e44c4cf	0.19215702
97	0xbe08f014	-0.13372833
98	0x3e865a43	0.2624074
99	0x3e0c0fd7	0.13677917

condEmbedding.1.bias f4 [10]
0	0xbdbb659d	-0.091502406
1	0x3e3763b7	0.17909132
2	0x3e46d92a	0.19418779
3	0xbe478ea2	-0.19488004
4	0x3e0207a8	0.12698233
5	0x3e3cce8c	0.18438166
6	0x3cefe735	0.029285053
7	0x3e3dbd08	0.18529141
8	0xbe5dc86f	-0.2165849
9	0xbe40303e	-0.18768403

condEmbedding.3.weight f4 [10, 10]
0	0xbe8583c2	-0.26077086
1	0xbe78b50e	-0.24287817
2	0x3e82abad	0.25521603
3	0x3e8c35da	0.27384835
4	0x3e8561f7	0.26051304
5	0x3e9b2c40	0.30307198
6	0xbe4f9663	-0.20272212
7	0x3e2a4298	0.16626966
8	0x3e450b6a	0.19242635
9	0x3e98a544	0.29813588
10	0x3eacc7fc	0.33746326
11	0x3e1d79a3	0.15378432
12	0xbe640c61	-0.22270347
13	0xbe47cfba	-0.19512835
14	0x3d1a4c27	0.03767028
15	0x3e8261ef	0.25465342
16	0x3c40f882	0.011777999
17	0xbe6c99a1	-0.2310548
18	0xbe3b48d9	-0.18289508
19	0x3e5d3139	0.21600808
20	0x3e8c12e1	0.27358153
21	0xbab29b7b	-0.0013626659
22	0xbe8aa10d	-0.27075997
23	0xbdc9833f	-0.09839486
24	0x3e9160c6	0.28394145
25	0x3ca73869	0.02041264
26	0x3e6be833	0.23037796
27	0x3e7fa7d1	0.2496636
28	0x3e8e0811	0.2774053
29	0xbe496c29	-0.19670166
30	0xbc85ef51	-0.016349467
31	0xbe025206	-0.12726602
32	0x3e86f4a8	0.26358533
33	0xbe9299c2	-0.28632933
34	0x3e67c625	0.2263418
35	0x3ddde938	0.108354986
36	0x3e89eb47	0.26937315
37	0xbe47133e	-0.19440934
38	0x3e09dd88	0.13463414
39	0x3d45ddd9	0.048307274
40	0xbe308c66	-0.17241058
41	0xbdc3512c	-0.09536967
42	0xbeb4aa7d	-0.35286322
43	0xbe786938	-0.24258888
44	0xbeb109fc	-0.3457793
45	0x3e892b25	0.2679073
46	0x3e627634	0.22115403
47	0x3e3701f7	0.17871843
48	0xbe380d7d	-0.17973895
49	0x3e6a4704	0.22878653
50	0x3e9c2da6	0.30503577
51	0x3e6f5281	0.23371316
52	0x3e1f7ef7	0.15575777
53	0xbe3fefc0	-0.18743801
54	0xbe10f5ad	-0.14156218
55	0xbe0a4466	-0.13502654
56	0xbe81e4da	-0.25369912
57	0xbd96d238	-0.07364315
58	0x3c5b9e70	0.013404474
59	0x3d970da2	0.07375647
60	0xbea52ea9	-0.3226216
61	0x3e94f9ef	0.29096934
62	0x3e5accef	0.21367238
63	0xbe927242	-0.28602797
64	0x3e96a790	0.29424715
65	0x3e76199a	0.24033204
66	0x3d6096ec	0.05483143
67	0xbe88da71	-0.26729158
68	0x3d2e8850	0.042610466
69	0xbdb122d6	-0.086492226
70	0x3e5e7b73	0.2172678
71	0x3e47998a	0.19492164
72	0x3e55fe20	0.20897722
73	0x3d4037f0	0.046928346
74	0xbd7efc0d	-0.062252093
75	0xbea298ca	-0.31757194
76	0xbdd92a12	-0.106037274
77	0x3e7626e4	0.24038273
78	0x3d932de1	0.07186485
79	0x3e60248f	0.21888946
80	0xbe5dc406	-0.21656808
81	0xbe5651c8	-0.20929635
82	0xbe9f10e7	-0.31067583
83	0xbe8f4a48	-0.2798636
84	0x3e1f4252	0.15552643
85	0xbe891bbd	-0.26778975
86	0xbacc39a9	-0.0015581149
87	0x3e022c00	0.12712097
88	0x3e55634f	0.20838664
89	0x3d64e2da	0.055880405
90	0xbe812659	-0.2522457
91	0xbe8c6473	-0.27420387
92	0xbe8ee648	-0.27910066
93	0xbdc23bb7	-0.09484046
94	0xbe9649ba	-0.29353124
95	0xbe5a8c33	-0.21342544
96	0xbe73f158	-0.23822534
97	0x3d99a708	0.07502562
98	0xbe6bdcb0	-0.23033404
99	0x3d3409fc	0.043954834

condEmbedding.3.bias f4 [10]
0	0x3de8de7a	0.11370559
1	0xbe97ec38	-0.29672408
2	0x3dc0133c	0.09378669
3	0xbe93f7c1	-0.2889996
4	0x3dc5bdeb	0.096553646
5	0x3e814067	0.25244448
6	0x3db30121	0.0874045
7	0xbcece96c	-0.028919898
8	0x3e539792	0.20663288
9	0xbd09826b	-0.033571642
